src/magnet_control/magnet_control/mscr_inverse_model.onnx (onnx, 252085 bytes, 14 tensors)

fc1_MatMul_W f4 [3, 128]
0	0x3d3b79fd	0.045770634
1	0xbd39d13f	-0.04536557
2	0x3d31f9c1	0.043451075
3	0xbe2102e6	-0.15723762
4	0xbe97a8fb	-0.2962111
5	0xbdac8eda	-0.08425684
6	0x3c5b5926	0.013387954
7	0xbdc2d126	-0.09512548
8	0x3d6bc368	0.0575594
9	0xbdd90e0a	-0.10598381
10	0x3e4a1547	0.19734679
11	0xbe91bf8b	-0.28466448
12	0xbe876a8f	-0.26448485
13	0x3d3f787c	0.046745762
14	0x3ecb6aa2	0.39729792
15	0x3d1bd477	0.03804442
16	0x3d31df7a	0.043426014
17	0x3d88b0c0	0.066743374
18	0x3d4fb7f6	0.05071255
19	0xbe9c067a	-0.3047369
20	0x3de8cfe1	0.11367775
21	0x3e91cdea	0.28477412
22	0xbe2091af	-0.15680574
23	0xbe951996	-0.29121083
24	0x3c0669f7	0.008203975
25	0x3cdad24d	0.026711607
26	0xbe4e3679	-0.20137967
27	0xbf8b300e	-1.087404
28	0x3df36b77	0.11885732
29	0x3e4586ab	0.19289653
30	0xbe91bf84	-0.28466427
31	0x3d8deb69	0.069296665
32	0x3b76047b	0.0037539292
33	0x3f8b53b1	1.0884916
34	0x3e9386b1	0.288137
35	0xbdf7a127	-0.12091284
36	0xbe6cdcdb	-0.23131125
37	0xba8195ec	-0.0009886599
38	0x3e02f8a7	0.12790166
39	0x3f3b0fd4	0.73071027
40	0x3e378f0f	0.17925666
41	0x3e1f05cd	0.15529557
42	0xbe7ddc96	-0.24791178
43	0xbd9735c6	-0.07383303
44	0xbf5aad4d	-0.85420686
45	0x3e218831	0.15774609
46	0x3e3f7b23	0.18699317
47	0x3eb5f4f0	0.35538435
48	0x3d989091	0.07449449
49	0xbe03862a	-0.12844148
50	0x3b8b1c3f	0.0042453106
51	0x3d2a53d9	0.04158387
52	0x3c264073	0.010147202
53	0x3d5addb1	0.053434078
54	0xbf472a17	-0.777986
55	0x3e330d90	0.17485642
56	0xbe01437d	-0.12623401
57	0xbe804ba1	-0.250577
58	0xbc8adaff	-0.016950129
59	0x3ebc5d29	0.36789826
60	0x3f144869	0.5792299
61	0xbe7bda26	-0.24594936
62	0xbed235f6	-0.41056794
63	0xbe13fe86	-0.14452562
64	0xbeb086c1	-0.3447781
65	0x3e1396c5	0.14412983
66	0x3dd2fbfa	0.10301967
67	0x3f5a97ca	0.8538786
68	0xbe2e579c	-0.17025608
69	0xbe269ae7	-0.16270028
70	0xbd3db086	-0.046310924
71	0x3e5f35f6	0.21797928
72	0x3e4587d3	0.19290094
73	0xbd31f6c0	-0.04344821
74	0x3db7dd18	0.08977717
75	0x3b3cfd76	0.0028837598
76	0x3e138c7a	0.14409056
77	0xbe91dea0	-0.28490162
78	0xbd95274f	-0.07282888
79	0x3c8092bf	0.015694974
80	0xbe8a1ae0	-0.2697363
81	0xbe96e5df	-0.29472253
82	0x3e5f9b54	0.21836597
83	0xbce61e91	-0.028090747
84	0x3db714ee	0.08939539
85	0xbe529178	-0.20563304
86	0xbd66e440	-0.05637002
87	0x3e0ee006	0.13952646
88	0x3e8bf399	0.27334288
89	0x3d1d5ae7	0.03841677
90	0xbd19b46e	-0.037525587
91	0x3dff2048	0.12457329
92	0xbba79e94	-0.0051153395
93	0x3e1f7444	0.15571696
94	0x3f70624c	0.9389999
95	0xbeab3ed6	-0.33446378
96	0xbdbfd1f6	-0.09366219
97	0x3e4db926	0.2009016
98	0x3e9c3259	0.30507162
99	0xbe33dd0e	-0.17564794
100	0x3dbfa0cd	0.09356842
101	0xbe56c15b	-0.20972197
102	0x3ce98da8	0.02850993
103	0xbd5d823c	-0.05407928
104	0xbe7296d8	-0.23690355
105	0xbd8ca906	-0.06868176
106	0x3eabb52e	0.33536667
107	0x3d664117	0.05621442
108	0xbe331c37	-0.17491232
109	0xbe4e9ea7	-0.20177709
110	0xbc080a86	-0.00830329
111	0xbe3771b8	-0.17914474
112	0x3ead8c6c	0.33896196
113	0xbe6d91f7	-0.23200212
114	0xbe589f12	-0.2115443
115	0xbe85488d	-0.26031914
116	0xbd94b905	-0.07261852
117	0x3ee06d34	0.43833315
118	0xbac836f5	-0.0015275168
119	0x3ea029e7	0.3128197
120	0x3eece09a	0.46265107
121	0x3e3563ce	0.17713854
122	0xbea9f36a	-0.33193523
123	0xbddd93db	-0.10819217
124	0x3d5264d0	0.051365674
125	0xbe58842d	-0.21144171
126	0xbe7da376	-0.24769387
127	0x3db0c568	0.08631402
128	0x3e596892	0.21231297
129	0x3dc90903	0.09816172
130	0xbc9763cc	-0.018480204
131	0xbe0b4cf1	-0.1360357
132	0x3e293928	0.1652571
133	0x3ea33bc7	0.31881544
134	0x3d64b696	0.05583819
135	0x3d0f3332	0.034960933
136	0x3d0fbfd2	0.035095043
137	0x3c39a105	0.011329894
138	0xbe2dbb05	-0.16965874
139	0x3dd52611	0.10407651
140	0xbe4cf17f	-0.20013998
141	0xbe9605d4	-0.29301322
142	0xbe66dece	-0.2254593
143	0xbe9375b3	-0.28800735
144	0xbb46cc89	-0.0030334315
145	0xbcabb5a6	-0.02096064
146	0x3d342b3e	0.04398655
147	0xbd39d860	-0.045372367
148	0x3e5c8ff4	0.21539289
149	0xbe83dc56	-0.2575404
150	0x3e8fda2a	0.28096133
151	0xbe80fea7	-0.25194284
152	0xbe0557a5	-0.13021715
153	0xbca0422c	-0.019562803
154	0x3db6c8ae	0.08924995
155	0x3dd00fa6	0.10159235
156	0xbed8a08b	-0.42309985
157	0x3c0774dd	0.0082676085
158	0x3e57ac57	0.21061836
159	0x3d5373f9	0.051624272
160	0x3ae856d8	0.0017726077
161	0x3e1b7066	0.15179595
162	0xbd2819d2	-0.04104025
163	0xbe672fb1	-0.22576787
164	0x3e9543c6	0.2915327
165	0x3a0d7f3a	0.00053976814
166	0xbd811470	-0.06302726
167	0xbd0aefa6	-0.033919953
168	0xbe837dac	-0.25681818
169	0x3d06d3e3	0.032916915
170	0xbe39446f	-0.18092512
171	0xbd608471	-0.054813806
172	0xbe359fde	-0.17736766
173	0xbe680c9f	-0.22661065
174	0xbea81cb6	-0.32834405
175	0xbe875f88	-0.26440072
176	0xbf4343d8	-0.76275396
177	0xbd33b9a9	-0.04387823
178	0xbb86f907	-0.004119042
179	0x3dc2a77e	0.09504603
180	0xbd8fb4b2	-0.07016887
181	0xbe7c70f4	-0.24652463
182	0x3dc9046c	0.098152965
183	0x3e96c4bf	0.2944698
184	0x3c17e894	0.00927176
185	0x3ecda4ee	0.40164894
186	0xbe96caba	-0.29451543
187	0xbe4792de	-0.19489619
188	0x3eabbcbf	0.3354244
189	0x3e80cb1a	0.25154954
190	0x3bfcc1e3	0.007713543
191	0xbe43055a	-0.1904501
192	0xbe6178fd	-0.2201881
193	0x3e29e70a	0.1659204
194	0x3d881353	0.06644311
195	0xbca81f44	-0.020522721
196	0xbe90805b	-0.28222927
197	0xbeac8bb9	-0.3370035
198	0x3e04cfc1	0.12969877
199	0x3cd9db8b	0.026593944
200	0xbd3243b5	-0.0435216
201	0xbdca0233	-0.09863701
202	0xbd132399	-0.03592262
203	0xbb5a3ec8	-0.003330158
204	0xbeaa4c06	-0.33261126
205	0xbe9b66b6	-0.303518
206	0x3dc325ff	0.095287316
207	0xbe269049	-0.16265978
208	0x3ec60ccf	0.38681647
209	0xbd30caea	-0.043162264
210	0x3e81c767	0.25347444
211	0x3e11b64b	0.14229695
212	0xbe4a4723	-0.19753699
213	0x3e70395f	0.23459385
214	0xbe57d8a3	-0.21078734
215	0x3b927b35	0.004470254
216	0xbd886781	-0.06660367
217	0xbc860d53	-0.016363775
218	0xbeb374f7	-0.35050175
219	0xbcdeebef	-0.027212111
220	0x3e549914	0.2076152
221	0x3d1da9ba	0.038491942
222	0x3d7d6e49	0.061872754
223	0x3d88ed8f	0.06685936
224	0xbe780448	-0.24220383
225	0x3eb3489d	0.35016337
226	0x3e60c083	0.21948437
227	0x3ea21c48	0.31662202
228	0xbcc521c5	-0.024063954
229	0xbec0b037	-0.3763444
230	0x3e8eed4a	0.27915412
231	0x3d8f431e	0.069952235
232	0x3d3c3614	0.04595001
233	0x3ed76ad8	0.42073703
234	0xbe3731d2	-0.17890099
235	0xbdf296f5	-0.11845199
236	0xbe1b35ca	-0.15157238
237	0xbd1c5196	-0.038163744
238	0x3df7e76f	0.12104689
239	0x3d94a775	0.072585024
240	0x3d9cffe0	0.07665992
241	0x3dac54c0	0.08414602
242	0xbe0419c7	-0.12900458
243	0x3d2964d1	0.04135591
244	0x3d997ace	0.07494126
245	0x3dedacbe	0.116052136
246	0xba0b94ea	-0.0005324619
247	0xbe84f26f	-0.25966212
248	0xbee300be	-0.44336504
249	0xbe0bc7f8	-0.13650501
250	0xbee7ac5c	-0.45248687
251	0x3db9c5e9	0.090709515
252	0x3e80eb68	0.251796
253	0xbe8d50a6	-0.27600592
254	0x3e4504d8	0.19240129
255	0xbd953d5e	-0.072870955

fc1_Add_B f4 [128]
0	0x3e0a8891	0.13528658
1	0x3ca82cfb	0.02052926
2	0x3e0da578	0.13832653
3	0x3d4cfc37	0.05004522
4	0xbd197303	-0.0374632
5	0xbdb07122	-0.08615328
6	0xbb514473	-0.0031931668
7	0xbddbcb48	-0.10732132
8	0xbdba93cf	-0.091102235
9	0x3c107948	0.008817978
10	0x3c0974b8	0.008389644
11	0xbd0798b4	-0.033104613
12	0x3caa48ec	0.020786725
13	0xbd972a0f	-0.07381069
14	0xbd15a6bf	-0.036535975
15	0xbdc4a555	-0.09601847
16	0xbdc2a953	-0.09504952
17	0xbdd80568	-0.10547906
18	0xbb7816dc	-0.0037855422
19	0xbca5eff4	-0.02025602
20	0xbdaf67aa	-0.08564694
21	0x3cab546e	0.020914283
22	0x3c825c3d	0.015913123
23	0xbd3efd53	-0.046628308
24	0xbc2cd715	-0.010549326
25	0xbd900d95	-0.070338406
26	0xbc8b2289	-0.016984241
27	0x3b9fbd00	0.0048748255
28	0x3dd7ffb3	0.10546818
29	0xbd9085ac	-0.07056746
30	0x3d772fd0	0.060348332
31	0x3c50825d	0.0127263935
32	0xbdae5403	-0.08512118
33	0xbb11bed2	-0.0022238982
34	0xbd3caf8c	-0.046065852
35	0xbdd88e18	-0.10573977
36	0xbd012429	-0.031528626
37	0xbdd4c2b7	-0.103887014
38	0x3bdfcba9	0.006829698
39	0x3d4f3cb6	0.050595008
40	0xbcbbf005	-0.022941599
41	0xbdca090b	-0.09865006
42	0xbd2c849d	-0.042118657
43	0xbdacd0f1	-0.0843829
44	0x3d22ee0b	0.039777797
45	0xbd3912f2	-0.045184083
46	0xbdc06f18	-0.093961895
47	0xbd61a8f6	-0.055092774
48	0x3d8c7aaf	0.068593375
49	0xbd70a3fa	-0.05875013
50	0xbde4b96e	-0.111681804
51	0xbd8c5a1b	-0.06853124
52	0xbdaf1de7	-0.08550625
53	0xbc078b44	-0.00827295
54	0x3ca2f126	0.01989038
55	0xbdaeacfe	-0.085290894
56	0xbdb3fc8a	-0.087884024
57	0xbd31abde	-0.043376796
58	0xbdbf23cc	-0.093329996
59	0xbc376453	-0.011193353
60	0xbc540306	-0.012940174
61	0xbcffd750	-0.031230599
62	0xbd22b264	-0.039720908
63	0x3cbc6da4	0.0230015
64	0xbd4e2075	-0.050323922
65	0xbd3a1196	-0.045426928
66	0xbd14d0d1	-0.036331955
67	0xbcb599b3	-0.022168016
68	0xbd5619ad	-0.05227058
69	0xbdad013f	-0.08447503
70	0x3c81fc1f	0.015867291
71	0x3ccebfe0	0.025237978
72	0xbd84ba87	-0.0648089
73	0xbd84ada0	-0.06478429
74	0x3c6f6ace	0.014612867
75	0xbdd34ed2	-0.10317768
76	0xbd5cc841	-0.053901915
77	0x3dd97580	0.106181145
78	0x3cf74199	0.030182647
79	0xbd7a03eb	-0.061038893
80	0x3ca4ea3c	0.020131223
81	0xbccbf4cf	-0.024897007
82	0x3dda74ae	0.10666786
83	0xbdcd27e6	-0.10017376
84	0xbdcfcc94	-0.10146442
85	0xbdd8591c	-0.10563871
86	0xbcc05b54	-0.023481049
87	0xbd9419af	-0.07231461
88	0xbce28a47	-0.027653826
89	0xbd875d66	-0.06609611
90	0xbd3b1bf9	-0.045680974
91	0xbdc0f106	-0.094209716
92	0x3d388671	0.04505009
93	0xbd419927	-0.047265198
94	0x3c0b35b5	0.0084966915
95	0xbdbd56cf	-0.09245073
96	0x3dba8e6a	0.091091946
97	0xbd7b83c7	-0.06140497
98	0x3c573de2	0.013137313
99	0xbddee689	-0.10883815
100	0xbdbbbfed	-0.09167466
101	0x3ca40f21	0.020026745
102	0xbdca44c5	-0.09876398
103	0xbdfb79ed	-0.12279115
104	0xbc6409da	-0.013918364
105	0x3d0270ac	0.031845734
106	0xbce43cde	-0.027861055
107	0xbd8cd7f5	-0.06877128
108	0xbdaae4bd	-0.083444096
109	0xbd295758	-0.041343063
110	0x3d87d1ce	0.06631814
111	0x3b8e971e	0.0043515107
112	0xbd96a503	-0.07355692
113	0xbce515d9	-0.02796452
114	0xbd9ca2b1	-0.076482184
115	0xbd09a92f	-0.03360861
116	0x3db09f76	0.08624165
117	0x3ccd90e9	0.025093513
118	0xbdc717d1	-0.097213395
119	0x3c72e348	0.014824696
120	0x3d52de4c	0.05148153
121	0xbd302891	-0.043007437
122	0xbbcab347	-0.0061859223
123	0x3cfff3e4	0.031244226
124	0x3d80674b	0.062697016
125	0x3c237170	0.009975776
126	0xba5ad9d0	-0.00083484966
127	0x3cc0f19b	0.023552706

fc2_MatMul_W f4 [128, 128]
0	0xbe223669	-0.15841068
1	0x3e9bc3c6	0.304228
2	0x3e2870a3	0.16449217
3	0x0000407a	2.313e-41
4	0x3c9c0d4a	0.019049305
5	0x3da6aace	0.08138047
6	0x3d27534f	0.040850934
7	0x80004742	-2.5562e-41
8	0xbd5d4592	-0.054021426
9	0x3d41ea16	0.047342382
10	0x3d36de2a	0.044645466
11	0xbd1b41aa	-0.03790442
12	0x3d053787	0.032523658
13	0x3e19a104	0.15002829
14	0x3bf25faa	0.007396658
15	0x3c55f926	0.01305989
16	0x3d4a029c	0.049318895
17	0xbcbcbe98	-0.023040101
18	0x3e433e0c	0.19066638
19	0x3df94028	0.1217044
20	0x0000a80b	6.0282e-41
21	0xbda93665	-0.08262328
22	0xbc93b85a	-0.018032242
23	0xbcf0a7a0	-0.029376805
24	0x3b0e97c3	0.0021757938
25	0xbdc0b172	-0.09408845
26	0xbe2ce410	-0.16883874
27	0x3d4d815f	0.050172206
28	0xbd924a89	-0.07143123
29	0xbd6c451e	-0.057683103
30	0x3d2a7f18	0.041625112
31	0xbe8a5c07	-0.27023336
32	0xbd63e177	-0.055634942
33	0x3cad4b1c	0.021153979
34	0xbd067119	-0.032822702
35	0xbe337a95	-0.1752723
36	0x80007f2d	-4.5622e-41
37	0x3e2c8425	0.16847284
38	0xbdf3b0c1	-0.118989475
39	0xbe8be5b9	-0.27323702
40	0x3cbdcf2c	0.023170076
41	0x3e0e5d01	0.13902666
42	0x3d48ce88	0.04902509
43	0xbd4542ae	-0.048159294
44	0xbde6fd00	-0.11278725
45	0x3d40f75a	0.047110893
46	0x3d6997a3	0.057029378
47	0xbd0805be	-0.0332086
48	0x0000dd81	7.946e-41
49	0x3e9d01bf	0.30665395
50	0x3d2d2bc1	0.042278055
51	0x3d89465d	0.06702874
52	0xb0086e59	-4.9633325e-10
53	0x0000977d	5.4344e-41
54	0xbe0fecf3	-0.14055233
55	0x3bee37da	0.0072698416
56	0xbdff1373	-0.124548815
57	0xbcad24bb	-0.021135679
58	0xbd72e522	-0.05930055
59	0xbdffe028	-0.12493926
60	0xbe20b4e5	-0.15694006
61	0x3db2fdcf	0.087398164
62	0x3e04c147	0.12964354
63	0xbe236228	-0.15955412
64	0x80004d67	-2.7767e-41
65	0xbd2610a5	-0.040543217
66	0x00001241	6.548e-42
67	0x8001867b	-1.40078e-40
68	0xbda533bf	-0.080665104
69	0xbd4d86d7	-0.05017742
70	0xbdf28428	-0.11841613
71	0xbe16a4d2	-0.14711311
72	0x3cb345e3	0.02188391
73	0x3d0d2027	0.03445449
74	0x3cfe1103	0.031013971
75	0x800088fa	-4.9138e-41
76	0x8000220a	-1.2211e-41
77	0x3d6eab05	0.058268566
78	0x3d297601	0.041372303
79	0xbdc2a062	-0.09503247
80	0xbc8e1800	-0.017345428
81	0xbc816a83	-0.015797859
82	0xbd8debf6	-0.069297716
83	0xbe19a5aa	-0.15004602
84	0x3d78e315	0.060763437
85	0xbd210849	-0.039314542
86	0xbdbc3ebe	-0.091916546
87	0x3bd49b5b	0.0064882464
88	0x3dd7ba2a	0.10533555
89	0xbe087906	-0.13327417
90	0xbdffa667	-0.124829106
91	0x0000824c	4.6742e-41
92	0x3ccece0a	0.025244731
93	0xbc77ebaa	-0.01513187
94	0x3ba9f1ed	0.0051863105
95	0x3d86df01	0.06585503
96	0x3c8f0988	0.0174606
97	0xbe5471ed	-0.20746584
98	0xbd8f72f7	-0.0700435
99	0x3a85557e	0.0010172573
100	0xbd7eb4e0	-0.062184215
101	0x3e285f7e	0.16442677
102	0xbcef6be8	-0.029226258
103	0xbe878046	-0.26465052
104	0xbd3c2cc2	-0.045941122
105	0x3cf88790	0.030338079
106	0x3db1fb7d	0.08690546
107	0xbece4fbf	-0.40295216
108	0xbde9aa60	-0.114094496
109	0xbe07eb2c	-0.13273305
110	0xbccb5378	-0.024820074
111	0xbd25be8c	-0.040464923
112	0xbd438095	-0.047730047
113	0x80003bc8	-2.1445e-41
114	0x3d15a4c5	0.03653409
115	0xbd096d05	-0.033551235
116	0x3db0c916	0.08632104
117	0x3c3162ed	0.010826808
118	0xbcd6f794	-0.026241101
119	0xbc963c96	-0.018339437
120	0x3bc8ef88	0.00613207
121	0xbd62b8e3	-0.055352103
122	0x3de1a89d	0.110184886
123	0xbdc1f0f9	-0.0946979
124	0xbdaca7ce	-0.08430444
125	0x3df820ee	0.12115656
126	0x3c8f1e6c	0.017470561
127	0xbddc2cbd	-0.10750721
128	0x3d5cab4d	0.053874303
129	0x3a8a915a	0.0010571883
130	0xbdacfeef	-0.08447062
131	0x800083b0	-4.724e-41
132	0xbd12131b	-0.03566275
133	0x3d7990e5	0.060929198
134	0xbd89e935	-0.06733934
135	0x8000fada	-8.9989e-41
136	0xbce65725	-0.028117726
137	0x3da76710	0.081739545
138	0x3c7f5e45	0.01558644
139	0x3d792ab9	0.06083176
140	0xbba67f33	-0.0050810813
141	0x3d2dac41	0.042400602
142	0xbcffdf1c	-0.031234317
143	0x3c14e954	0.009088833
144	0xbd2e6b06	-0.042582534
145	0xbd7fa958	-0.06241736
146	0xb9eba3d8	-0.00044944766
147	0x3dbcad7c	0.09212777
148	0x0001124c	9.8399e-41
149	0xbd0174e2	-0.03160561
150	0x3bf568e2	0.0074893096
151	0xbe35b203	-0.17743687
152	0xbd9bfcad	-0.076165535
153	0xbca6cb1b	-0.02036052
154	0x3d2f3153	0.04277165
155	0x3d51d490	0.051228106
156	0x3d75c028	0.059997708
157	0x3d97efee	0.0741881
158	0xbcdd5c82	-0.02702165
159	0xbd0f070d	-0.034918834
160	0x3cd86413	0.026414907
161	0xbcdc5dbc	-0.026900165
162	0xb1f3df74	-7.0976345e-09
163	0x3ce50f55	0.027961412
164	0x00002d06	1.6151e-41
165	0x3761389c	1.34242255e-05
166	0xbda32342	-0.07965709
167	0x3a88245a	0.001038681
168	0xbc64d54d	-0.0139668705
169	0xbe303ab9	-0.17209901
170	0x3cb45094	0.022011079
171	0xbd83e197	-0.06439512
172	0x3b19a031	0.0023441429
173	0xbda114f4	-0.078653246
174	0x38c8f72a	9.582781e-05
175	0xbdb2094d	-0.0869318
176	0x8000d34c	-7.5799e-41
177	0xbe4ba641	-0.1988764
178	0x3dec03bf	0.11524152
179	0xbcc51d9e	-0.024061974
180	0x284d6d4f	1.14034885e-14
181	0x8000bda4	-6.803e-41
182	0xbc5bd6b6	-0.01341789
183	0x3dbaf789	0.09129245
184	0x000080f0	4.6254e-41
185	0xbe3baef9	-0.18328466
186	0x3ca41dde	0.020033773
187	0x3d3390ed	0.043839384
188	0xb7749444	-1.4578054e-05
189	0xbb7943af	-0.0038034727
190	0xbd1e02e9	-0.038576994
191	0xbdbc88b5	-0.09205762
192	0x00002ba6	1.5658e-41
193	0x3da16c20	0.07881951
194	0x80001ace	-9.616e-42
195	0x00006d9d	3.9322e-41
196	0xbca8af5b	-0.020591429
197	0xbce61a70	-0.028088778
198	0x3d064697	0.032782163
199	0xbcdbff38	-0.026855096
200	0xbc7337b0	-0.01484482
201	0x3b86fe73	0.004119688
202	0x3cf7122a	0.030160028
203	0x00005fdd	3.4389e-41
204	0x0000d7a8	7.7363e-41
205	0xbcda6a40	-0.026661992
206	0x3d03973a	0.032126643
207	0xbd481c26	-0.04885497
208	0xbcc9eef6	-0.024650078
209	0x3d713d3b	0.058896285
210	0xbbd39ecd	-0.0064581395
211	0xbd3f7dd4	-0.04675086
212	0x3d6c2c8f	0.057659682
213	0x3de99435	0.114052214
214	0x3bc6ade3	0.0060632094
215	0x3c0b4ef5	0.008502712
216	0xbd852f11	-0.06503118
217	0xbd820d63	-0.063502096
218	0x3d1ced47	0.038312223
219	0x0000a9db	6.0933e-41
220	0x3d3200e0	0.043457866
221	0xbe4cb0fc	-0.19989389
222	0xbdf09fe7	-0.11749249
223	0xbdbff496	-0.09372823
224	0x3d858ee0	0.06521392
225	0x063cd05f	3.5511957e-35
226	0xbc96e9eb	-0.018422088
227	0xbd106330	-0.035250843
228	0x3d0cf14a	0.0344098
229	0x3da51dcf	0.08062326
230	0x3c9662da	0.018357683
231	0x8000543a	-3.0215e-41
232	0x3d2601b9	0.040528987
233	0xbd45cdcf	-0.048291977
234	0x3d27e75e	0.040992133
235	0x800045c0	-2.5022e-41
236	0x3c6ce072	0.014457809
237	0xbaae9f79	-0.0013322673
238	0x3d88787c	0.066636056
239	0xbd9df16e	-0.07712065
240	0x80009529	-5.3509e-41
241	0x8000b48c	-6.4768e-41
242	0x3d610d80	0.054944515
243	0xbd6a1995	-0.057153303
244	0xbda53157	-0.080660515
245	0xbd5c5815	-0.05379494
246	0x3d025a1f	0.031824227
247	0xbdf4919f	-0.119418375
248	0x3d105dc7	0.035245683
249	0x3d77c1a7	0.060487416
250	0x3da3ec57	0.080040626
251	0xbcc54384	-0.024080046
252	0xbe80e869	-0.25177315
253	0x3da18313	0.078863285
254	0x3d65e1a3	0.056123387
255	0xbd8b1992	-0.067919865

fc2_Add_B f4 [128]
0	0xbd46850b	-0.048466723
1	0x3dc249b2	0.094867125
2	0xbc9bb1c3	-0.019005662
3	0xbc18ff2f	-0.009338184
4	0xbb871895	-0.0041228035
5	0xbc89043b	-0.01672565
6	0xbd3f6d4d	-0.046735097
7	0xbc259160	-0.010105461
8	0xbc00ca44	-0.007860724
9	0xbc6ebc73	-0.014571297
10	0x3e087a3a	0.13327876
11	0xbd96f242	-0.07370426
12	0xbd393d25	-0.045224328
13	0x3b809c6b	0.0039248965
14	0xbd4f96ea	-0.050681032
15	0x3d205ded	0.039152075
16	0xbdc8f58f	-0.098124616
17	0xbe082168	-0.13293993
18	0x3de3aa43	0.11116459
19	0x3db3394a	0.087511614
20	0xbcad3025	-0.021141121
21	0x3d9010a1	0.07034422
22	0xbd1cc061	-0.038269404
23	0x3ca727d1	0.020404728
24	0xbdb3cd89	-0.08779437
25	0x3c77114e	0.015079809
26	0xbd4987ab	-0.04920165
27	0x3c6b13b0	0.014347956
28	0xbc3ea234	-0.011635352
29	0x3d3efc5d	0.04662739
30	0xbd119238	-0.035539836
31	0xbdf16f19	-0.11788768
32	0x3d4a512f	0.04939383
33	0xbd4011c1	-0.04689193
34	0x3d8fbeab	0.07018789
35	0xbd77cb7d	-0.060496796
36	0xbcadb84c	-0.021206044
37	0xbc25ba4e	-0.010115219
38	0xbc7450ef	-0.014911874
39	0xbda3f471	-0.08005608
40	0x3bf99819	0.0076170084
41	0x3e0dd582	0.13850978
42	0xbd6a27a5	-0.057166714
43	0xbd6b9d79	-0.057523225
44	0x3adefbbb	0.0017012277
45	0xba43a686	-0.00074634736
46	0x3d9bce4d	0.07607708
47	0x3d1770ab	0.036972683
48	0xb1e747dc	-6.7311543e-09
49	0x3e1a82fa	0.15089026
50	0x3c336f61	0.010951848
51	0x3c7843eb	0.015152912
52	0xbd5369b9	-0.051614497
53	0xbc7d10b0	-0.015445873
54	0xbc886c49	-0.016653197
55	0x3ae2dd82	0.0017308446
56	0xbcadf774	-0.021236159
57	0xbd735e3e	-0.05941605
58	0xbd228359	-0.039676044
59	0xbc432899	-0.011911535
60	0xbd1271f1	-0.035753194
61	0xbd0fe17b	-0.035127144
62	0xbcc999f2	-0.02460954
63	0xbd492508	-0.04910758
64	0xbc7e7024	-0.015529666
65	0x3b09485c	0.002094767
66	0xbd23e1eb	-0.040010374
67	0xbc6cce32	-0.014453458
68	0x3b85e47b	0.004086075
69	0x3d0c37d1	0.03423292
70	0x3c707b8c	0.014677893
71	0x3cd074a9	0.025446253
72	0xbd8af297	-0.067845516
73	0xbe1c099a	-0.15238038
74	0xbc9d63dd	-0.019212658
75	0xbd453b4e	-0.04815226
76	0xbc0b82ac	-0.008515041
77	0xbc4f30ee	-0.012645943
78	0xbd7288b0	-0.059212387
79	0xbbb241fa	-0.005439994
80	0x3e17be8e	0.14818785
81	0x3deeb617	0.11655825
82	0xbd13e28b	-0.03610472
83	0xbe163cf3	-0.14671688
84	0xbd878177	-0.0661649
85	0x3ccbb0c4	0.024864562
86	0x3ce952f5	0.02848194
87	0xbd9183ad	-0.07105193
88	0xbbec34eb	-0.0072084568
89	0x3d9121de	0.07086538
90	0xbd1851bc	-0.037187323
91	0xbca53f0b	-0.020171663
92	0x3d9f9a8f	0.077931516
93	0xbc548712	-0.012971656
94	0x3d91877d	0.071059205
95	0xbe0bf1ba	-0.1366643
96	0xbc75a7eb	-0.014993648
97	0xbd0dd366	-0.034625433
98	0xbddb5c28	-0.10710937
99	0x3d1b7e65	0.037962336
100	0x3d191fbf	0.03738379
101	0x3cc93a8a	0.024564046
102	0xbd84c855	-0.06483523
103	0xbd9045bd	-0.070445515
104	0xbd7e40e6	-0.06207361
105	0x3c607a1a	0.013700986
106	0x3d9c5a31	0.0763439
107	0xbdb9f2ae	-0.090794906
108	0x3d9ad671	0.07560433
109	0xbc9a5cc7	-0.018843068
110	0xbc23b24e	-0.009991242
111	0xbd58a0d6	-0.05288776
112	0x3db1a06b	0.086731754
113	0xbc158e53	-0.009128171
114	0x3d62f39c	0.055408105
115	0x3d39a701	0.045325283
116	0x3c9b9078	0.018989787
117	0xbc0c6c0e	-0.008570684
118	0xbce60dc4	-0.028082736
119	0xbe719489	-0.23591818
120	0x3d9c1f2c	0.07623133
121	0x3d919bec	0.07109818
122	0xbd7274e9	-0.059193525
123	0xbdc6a204	-0.09698871
124	0x3d9d8080	0.07690525
125	0x3c2da2fe	0.010597942
126	0x3c1a4749	0.00941641
127	0xbcd7d250	-0.026345402

fc3_MatMul_W f4 [128, 128]
0	0x3d9258bb	0.0714583
1	0x3db5cc8a	0.08876903
2	0x3d62ce3c	0.05537246
3	0x3de08ed9	0.10964746
4	0x3d1e371c	0.038626775
5	0x3de5f8d6	0.11229102
6	0xbd63277a	-0.05545757
7	0xbd9b8516	-0.075937435
8	0xbda0571f	-0.07829117
9	0xbe164abe	-0.1467695
10	0x000030dd	1.7529e-41
11	0xbca92249	-0.020646231
12	0x3ccdf7f1	0.025142642
13	0x3e296abf	0.16544627
14	0xbd0658bd	-0.03279947
15	0xbd8f95ad	-0.0701097
16	0x3d9a7ec8	0.07543713
17	0xbe239ab3	-0.15976982
18	0xbc34cbe1	-0.011034937
19	0x3c1b3522	0.009473117
20	0xbdd09a4b	-0.10185679
21	0xbde862ff	-0.11347007
22	0x3c921815	0.017833749
23	0xbbb50335	-0.005524064
24	0x3df4881c	0.11940023
25	0xbd00a6c6	-0.031409048
26	0xbbad5f4a	-0.0052909004
27	0x3d312d3f	0.04325604
28	0x80001626	-7.945e-42
29	0xbc985b33	-0.018598175
30	0xbd8a9080	-0.067658424
31	0x3e4fcb14	0.20292312
32	0xbdc37efa	-0.09545703
33	0x3e3ec11c	0.18628353
34	0x3d290612	0.041265555
35	0xbe1275c5	-0.14302738
36	0x3e263a50	0.16233182
37	0x000037f2	2.007e-41
38	0x3dd2ab5c	0.102865905
39	0xbc258712	-0.010103004
40	0x3d79a5c3	0.0609491
41	0x3cccb2d6	0.02498762
42	0xbc33e19a	-0.010979081
43	0x00003b38	2.1244e-41
44	0xbd7f0763	-0.062262904
45	0xbe01bf20	-0.12670565
46	0xbdcef59c	-0.1010544
47	0xbd7515eb	-0.059835356
48	0x3cd1d95e	0.025616344
49	0xbd865a97	-0.065602474
50	0xbc600888	-0.013673909
51	0xbdf915cf	-0.12162363
52	0x3db0bc22	0.086296335
53	0x3d984316	0.074346706
54	0x3d229bbd	0.039699305
55	0x00004fb9	2.8599e-41
56	0xbe3ceb44	-0.18449122
57	0xbebedbb4	-0.37276995
58	0x3b04a9c9	0.0020242801
59	0x00006e5f	3.9594e-41
60	0xbe1c10d1	-0.1524079
61	0xbe023a9f	-0.12717675
62	0xbc0ba2bd	-0.008522687
63	0x3daaa3b2	0.08332004
64	0xbd515853	-0.051109623
65	0x149e7055	1.599823e-26
66	0x3dcd1ed6	0.10015647
67	0xbc1a14e5	-0.009404396
68	0xbc204a90	-0.009783402
69	0xbe4dd91e	-0.20102355
70	0xb395286d	-6.9457066e-08
71	0xbdc59a0e	-0.09648524
72	0xbd261f5f	-0.04055726
73	0x3c0fe7ad	0.008783263
74	0x957fb494	-5.163929e-26
75	0x3daca099	0.08429069
76	0xbdbbaffd	-0.091644265
77	0x3de16163	0.11004903
78	0xbd8f7838	-0.07005352
79	0x3b4529a0	0.0030084625
80	0x3d4e7374	0.050403073
81	0x3c9be7ea	0.019031484
82	0x3d07b1e2	0.033128627
83	0xbddd89b9	-0.10817284
84	0x80002102	-1.1841e-41
85	0xbd815534	-0.06315079
86	0x3d71d059	0.059036586
87	0xa7edc554	-6.5994658e-15
88	0xbca3c12e	-0.019989576
89	0x3dde2780	0.10847378
90	0xbdc403e8	-0.095710576
91	0x3e15d56a	0.14632192
92	0x3cb0acd5	0.021566788
93	0x00008676	4.8235e-41
94	0xbd92e658	-0.07172841
95	0x3dcd005f	0.100098364
96	0x869eb4de	-5.9698755e-35
97	0x3dce255f	0.10065722
98	0xbd23da9b	-0.0400034
99	0x3d48d8d3	0.049034905
100	0xbd07d023	-0.03315748
101	0xbe643714	-0.22286636
102	0x3bb83c64	0.0056224335
103	0xbe0f5a68	-0.13999331
104	0xbd52622a	-0.051363148
105	0x3d119bb7	0.035548892
106	0x3e10a4c2	0.1412535
107	0x3d96edb5	0.07369558
108	0x3d21f09c	0.039536104
109	0x3ccc2364	0.02491922
110	0x3db38540	0.0876565
111	0xbd8ccff9	-0.06875605
112	0x3d225d8c	0.039639995
113	0xbe7ddd5c	-0.24791473
114	0xbd9c8be3	-0.07643869
115	0x3d3a3f65	0.045470614
116	0x3e280801	0.16409303
117	0x3d508485	0.05090763
118	0xbc69b972	-0.014265405
119	0xbd0ea6fa	-0.03482721
120	0xbdd149c4	-0.10219148
121	0xbdaff5d3	-0.08591809
122	0xb8242174	-3.9131803e-05
123	0x3ddd876a	0.10816844
124	0xbd32717c	-0.04356526
125	0x3df3a371	0.11896408
126	0x0000517a	2.9228e-41
127	0xbcc4b125	-0.02401025
128	0xbbb14b5c	-0.005410595
129	0xbe09eac5	-0.13468464
130	0xbcbc4c9a	-0.022985745
131	0x3d24f230	0.04027003
132	0xbcc0a311	-0.023515256
133	0xbeda3a39	-0.42622545
134	0x3cc2007b	0.02368187
135	0xbd49ee67	-0.049299624
136	0xbe141b09	-0.14463438
137	0x3cdb55e4	0.026774354
138	0x80007ba5	-4.4355e-41
139	0x3c99076c	0.018680297
140	0x3c799f85	0.015235786
141	0xbe93b653	-0.2885004
142	0xbdbbe8c5	-0.09175257
143	0x3e6c3a26	0.23069057
144	0xbd768c45	-0.060192365
145	0x3c8b91e7	0.017037345
146	0x3e0df055	0.1386121
147	0xbc8d3682	-0.017237905
148	0xbdadd795	-0.08488385
149	0x3cf585cc	0.029971026
150	0xbd8a92b6	-0.06766264
151	0x3e0c3d42	0.13695243
152	0xbdfb7d5a	-0.12279768
153	0x3e23b716	0.1598781
154	0xbd56c745	-0.052436132
155	0x3bafef1e	0.005369081
156	0x000083d1	4.7287e-41
157	0xbf36508e	-0.71216667
158	0xbdab4a64	-0.08363798
159	0xbe213578	-0.15743053
160	0xbd06c25e	-0.032900207
161	0xbe157fc7	-0.14599524
162	0x3d9cab93	0.07649913
163	0xbe0cf2df	-0.13764523
164	0x3e02cae1	0.12772705
165	0x00002ba8	1.5661e-41
166	0xbea00d15	-0.3125998
167	0xbdd7a19a	-0.1052887
168	0xbe0f7064	-0.14007717
169	0x3d85bbc5	0.06529955
170	0x3eaa5b0c	0.33272588
171	0x8000addc	-6.2369e-41
172	0x3d6fe2f8	0.058566064
173	0x3dcb84da	0.09937449
174	0x3c45befc	0.01206946
175	0x3df765b3	0.120799445
176	0xbd07e32e	-0.03317564
177	0xbcf06ea3	-0.02934963
178	0x3e0eb07a	0.13934508
179	0xbe937173	-0.28797492
180	0x3d33afce	0.043868832
181	0xbe6f08fb	-0.2334327
182	0xbd450017	-0.04809579
183	0x80009bc5	-5.588e-41
184	0xbe73a183	-0.2379208
185	0xbe10cddf	-0.14141034
186	0xbc66a66d	-0.014077765
187	0x8000a446	-5.893e-41
188	0xbccc1dc3	-0.024916535
189	0xbe2c3781	-0.16818048
190	0x3d840a40	0.064472675
191	0xbda4d87c	-0.080491036
192	0xbcb821fd	-0.022477144
193	0x00008677	4.8237e-41
194	0xbdc13436	-0.094337866
195	0x3d948f10	0.072538495
196	0xbe04f73d	-0.12984939
197	0xbdcece0d	-0.10097895
198	0xbae9aac9	-0.0017827387
199	0xba954c78	-0.0011390587
200	0x3e074cc4	0.13212878
201	0x3db899c4	0.090137035
202	0x80005c4a	-3.3107e-41
203	0xbdbe10e7	-0.092805676
204	0x3df1fc88	0.11815745
205	0x3d517862	0.051140197
206	0xbc992a43	-0.01869691
207	0xbecc7a94	-0.3993727
208	0xbddd4964	-0.10805014
209	0xbd2b900b	-0.041885417
210	0xbceb8a70	-0.028752536
211	0x3d25d4fa	0.040486313
212	0x00002331	1.2624e-41
213	0xbeab213e	-0.334238
214	0xbded1d15	-0.115778126
215	0xb8049230	-3.16074e-05
216	0x3dce4c87	0.1007319
217	0xbe03e40b	-0.1287996
218	0xbda0b152	-0.07846321
219	0x3d8ede76	0.06976025
220	0xbd9b16bd	-0.07572696
221	0x800026ac	-1.3873e-41
222	0x3d04d574	0.032430127
223	0x3dc56996	0.096392795
224	0x800283e8	-2.3099e-40
225	0xbc3cc994	-0.011522669
226	0x3ddc8e2a	0.10769303
227	0x3d6f3455	0.058399517
228	0x3de844d9	0.11341257
229	0x3b935d0f	0.0044971774
230	0xbd2f87df	-0.042854186
231	0xbe83e477	-0.25760242
232	0x3db20a5e	0.08693384
233	0xbd073afd	-0.03301524
234	0xbe0332c1	-0.1281233
235	0x3da65647	0.08121925
236	0xbf144d16	-0.57930124
237	0x3e24523d	0.16046996
238	0xbc9a2279	-0.018815266
239	0x3d1e5080	0.03865099
240	0x3e01f1bc	0.1268987
241	0x3bcf1507	0.0063196453
242	0x3d7af9d5	0.061273415
243	0xbd0a41b8	-0.03375408
244	0xbdc45d0e	-0.09588061
245	0x3db1ff76	0.086913034
246	0x3dee1581	0.11625195
247	0xbd93ada8	-0.07210857
248	0xbd08bfdf	-0.033386108
249	0x3dc47527	0.095926575
250	0xbddef739	-0.10886998
251	0xbdf962ed	-0.12177072
252	0x3de8d79d	0.1136925
253	0x3d40e3ee	0.04709237
254	0x8000dca6	-7.9154e-41
255	0xbe54da70	-0.20786452

fc3_Add_B f4 [128]
0	0x3ba6f994	0.00509567
1	0x3c4bfbd6	0.012450179
2	0xbd2d9ed6	-0.042387806
3	0xb96e119f	-0.00022704013
4	0xbc6455e8	-0.013936497
5	0x3d30d2c5	0.043169755
6	0x3c92be64	0.017913051
7	0x3bbf62ab	0.0058406196
8	0xbc234ee2	-0.009967538
9	0x3df9f250	0.122044206
10	0xbd11c2a2	-0.035586007
11	0x3d4a51d7	0.049394455
12	0xbd2c415e	-0.042054527
13	0xbd0cf7c5	-0.03441598
14	0xbbb1d009	-0.005426411
15	0xbda1c894	-0.07899585
16	0xbd6d3f5b	-0.05792175
17	0x3e07c0fe	0.13257214
18	0xbd264632	-0.040594287
19	0x3c3cf023	0.011531862
20	0x3a80ce0c	0.0009827032
21	0xbd1f6187	-0.03891137
22	0x3cca5fa2	0.024703804
23	0x3dfbf56a	0.123026684
24	0x3cd79106	0.02631427
25	0x3cfe8750	0.031070381
26	0x3d4be678	0.04978034
27	0xbca908c6	-0.020634066
28	0xbc32cd49	-0.010913202
29	0x3dafefc5	0.08590654
30	0x3cc252e1	0.02372116
31	0x3bae8e64	0.005327033
32	0x3e0b919a	0.13629761
33	0xbd1b0c16	-0.037853323
34	0xb986cf57	-0.00025712952
35	0x3d90c953	0.070696495
36	0xbd74e89d	-0.05979215
37	0xbc98e39e	-0.018663224
38	0x3d876863	0.06611707
39	0xbdc95500	-0.098306656
40	0xbe312a2d	-0.17301245
41	0xbd096c8a	-0.033550777
42	0x3da0260a	0.078197554
43	0xbcbc5278	-0.022988543
44	0x3c2daa05	0.010599618
45	0xbcdb48df	-0.026768146
46	0xbd5d14f8	-0.053975075
47	0xbbaa2d44	-0.0051933844
48	0xbdcef395	-0.10105053
49	0x3cf57ac5	0.029965768
50	0x3d3b08ea	0.045662798
51	0x3e3a2d52	0.18181351
52	0x3ac367d8	0.0014908267
53	0x3dcc247a	0.09967895
54	0x3d595592	0.05306012
55	0xbbea41ce	-0.007148958
56	0x3e0aa5a9	0.13539757
57	0xbd5109ff	-0.051034924
58	0x3d49c738	0.049262255
59	0xbc0e4a7f	-0.008684753
60	0x3c519b33	0.01279335
61	0x3d9f05de	0.07764791
62	0xbd86bf2c	-0.06579432
63	0x3dcd1f41	0.10015727
64	0xbd3dd68c	-0.046347186
65	0xbc8a5dba	-0.016890395
66	0x3c9f6579	0.019457566
67	0x3c76c8d6	0.015062531
68	0xbd51da13	-0.051233362
69	0x3e07d7ff	0.1326599
70	0xbcbb688a	-0.022876997
71	0x3b80d4a6	0.0039315997
72	0x3dba97e3	0.09111001
73	0x3e211883	0.15732007
74	0xbc915858	-0.01774232
75	0xbbda4be1	-0.0066618775
76	0xbd5b8a4f	-0.0535987
77	0xb991c44d	-0.0002780281
78	0x3b8a7261	0.004225061
79	0x3ddcc2b9	0.10779328
80	0xbd3d688c	-0.04624228
81	0x3adadcff	0.0016697942
82	0xbc44592e	-0.011984153
83	0x3d65fb5f	0.05614793
84	0xbcf79d17	-0.030226273
85	0x3e006e9c	0.12542194
86	0x3d7bbaab	0.061457317
87	0xbc29a20c	-0.010353576
88	0x3dee9c5a	0.116509154
89	0xbd691594	-0.056905344
90	0x3db3dee5	0.08782748
91	0xbd4d587f	-0.050133225
92	0xba78525b	-0.0009472721
93	0xbc4810bf	-0.012211024
94	0xbcb7021d	-0.022339875
95	0xbbc2754e	-0.005934394
96	0xbc4a8355	-0.012360414
97	0xbcb191aa	-0.021675903
98	0xbd26db30	-0.040736377
99	0xbbf8425f	-0.0075762714
100	0x3c894fa7	0.016761614
101	0xbc515c81	-0.012778402
102	0x3c05c040	0.008163512
103	0x3df3831c	0.118902415
104	0xbd81034a	-0.062994555
105	0x3d45305b	0.04814182
106	0x3be98692	0.0071266377
107	0x3ca1db84	0.019757994
108	0x3bd64176	0.0065385653
109	0xbdf5e418	-0.12006396
110	0xbb7ccbaa	-0.0038573542
111	0xbc7a27c9	-0.015268275
112	0xbcbea960	-0.023274124
113	0x3b486519	0.0030577837
114	0x3ab54d02	0.0013832154
115	0x3c86a2e3	0.016435092
116	0x3c8aca6d	0.016942227
117	0xbc978b68	-0.018499091
118	0x3b6d884b	0.0036244567
119	0x3dc3f802	0.09568788
120	0x3d8d32b6	0.06894438
121	0x3db8cd94	0.09023586
122	0x3e07b68c	0.1325323
123	0x3d349fee	0.044097833
124	0xbc4ef56f	-0.012631758
125	0xbcf248c9	-0.029575722
126	0xbbf41aa3	-0.0074494644
127	0x3c1926a9	0.009347596

fc4_MatMul_W f4 [128, 128]
0	0xbdb64feb	-0.08901962
1	0x3ddb8886	0.10719399
2	0xbdeda6cc	-0.116040796
3	0xbeb4a415	-0.35281435
4	0x000097c9	5.445e-41
5	0x3dca4452	0.09876312
6	0x3e010d21	0.12602665
7	0xbdc8b279	-0.09799666
8	0xbd15a31c	-0.036532506
9	0x80008102	-4.6279e-41
10	0xbd0c623b	-0.034273367
11	0x80002bae	-1.567e-41
12	0xbcb36457	-0.021898432
13	0x3d51ffe1	0.051269416
14	0x3d6f2206	0.058382057
15	0x80007743	-4.2783e-41
16	0xbda74e6e	-0.08169256
17	0xbdc86c2b	-0.097862564
18	0xbe056a18	-0.13028753
19	0x3d6e090d	0.0581141
20	0x80003bfa	-2.1516e-41
21	0xbc91858b	-0.017763874
22	0x3e077b27	0.13230573
23	0xbcb8c694	-0.022555627
24	0x3d6ef9a6	0.058343552
25	0x3d683ba8	0.056697518
26	0x80005d72	-3.3522e-41
27	0xbe147e5c	-0.14501327
28	0xbded1fd1	-0.11578334
29	0x00003573	1.9174e-41
30	0x3befadf3	0.0073144375
31	0xbd008584	-0.03137733
32	0x3ddc0973	0.1074399
33	0xba8e5edc	-0.001086201
34	0x3cbe890e	0.023258712
35	0xbc7147ba	-0.014726574
36	0x3d28ba87	0.04119351
37	0x3da4afaf	0.080413215
38	0x3d027ce3	0.031857383
39	0xbd88cbc4	-0.0667949
40	0x8000275d	-1.4121e-41
41	0x3d83d551	0.06437171
42	0xbca8a0cc	-0.020584486
43	0x3b1ddd80	0.0024088323
44	0x200a5781	1.1718007e-19
45	0x3d84631d	0.06464217
46	0x800062e1	-3.5471e-41
47	0x3e16bd1b	0.14720576
48	0x3e173e46	0.14769849
49	0x3d211ba8	0.039333016
50	0xbec3adb4	-0.38218462
51	0xbd10ffbd	-0.03540014
52	0x3de3bd7a	0.11120124
53	0xbced8f58	-0.028999016
54	0xbdcf0f8d	-0.10110388
55	0x3c9bddf7	0.01902674
56	0xbc9ad525	-0.018900463
57	0xbd83e85a	-0.06440802
58	0xbd24aa53	-0.040201496
59	0xbdce0e21	-0.100612886
60	0x3d4d23a4	0.050082818
61	0x3d46d4f4	0.04854293
62	0x3e1880cb	0.1489288
63	0xbcb5a0cb	-0.022171399
64	0x0000a178	5.7924e-41
65	0xbe9303b4	-0.28713763
66	0xbd5e3ff9	-0.054260228
67	0xbc3549a2	-0.011064919
68	0xa12858fd	-5.703839e-19
69	0xbe076433	-0.13221817
70	0x80009951	-5.5e-41
71	0x3da023ad	0.078193046
72	0xbc93dd38	-0.018049821
73	0xbeb2db85	-0.34933105
74	0x3d36f200	0.044664383
75	0xbd5e5832	-0.05428333
76	0xbdbf6ca1	-0.09346891
77	0x3d848de6	0.064723775
78	0xbd3492d6	-0.044085346
79	0x3d754bc6	0.059886716
80	0xbcdec4c4	-0.027193435
81	0x3c4036a0	0.011731774
82	0x3c705f85	0.014671211
83	0x3d0373a4	0.032092705
84	0x000039a7	2.0682e-41
85	0xbd5283a2	-0.051395066
86	0x3d14e230	0.03634852
87	0xbd301dcc	-0.042997167
88	0x3dc38153	0.09546151
89	0x0000287d	1.4524e-41
90	0x3d130882	0.035896786
91	0xbecba912	-0.39777428
92	0x3dcc5a0e	0.09978114
93	0x395a5674	0.00020822306
94	0xbe037608	-0.12837994
95	0x82bf767b	-2.8132932e-37
96	0xbd556241	-0.052095655
97	0xbe17edc1	-0.1483679
98	0xbd72212d	-0.05911367
99	0x000084f0	4.7689e-41
100	0xb98d4794	-0.00026946946
101	0xbe5abc2b	-0.21360843
102	0xbd277a39	-0.040888045
103	0x3d84ca7f	0.064839356
104	0x3da96c43	0.082726024
105	0xbe236187	-0.15955172
106	0x3e0e386f	0.13888715
107	0xbcc2e303	-0.023789888
108	0x80004572	-2.4912e-41
109	0xbd4f99a7	-0.050683644
110	0x3ccfdcdd	0.02537387
111	0x39c0ba92	0.000367601
112	0x3dd426dc	0.10358974
113	0x3c7f5783	0.015584829
114	0xbd644900	-0.05573368
115	0xbc4b7405	-0.012417798
116	0x3cbe32b2	0.023217533
117	0x3d254063	0.040344607
118	0xbdbc8cf8	-0.09206575
119	0x3be6c14a	0.007042085
120	0x3d953b30	0.0728668
121	0xbe404cd7	-0.18779312
122	0xbe009f8a	-0.1256086
123	0x8000456a	-2.4901e-41
124	0x3db4245d	0.08795998
125	0x0001d7fd	1.69317e-40
126	0xbc9386d2	-0.018008623
127	0x3d82819e	0.06372379
128	0x3d45aef5	0.048262555
129	0xbe3e628f	-0.18592285
130	0xbd01a7b8	-0.03165409
131	0x3d85a5b0	0.06525743
132	0x80000987	-3.418e-42
133	0xbbd66741	-0.0065430705
134	0xbeb39baf	-0.35079715
135	0x3d2b813a	0.041871287
136	0x3e50c422	0.20387319
137	0x8000b765	-6.579e-41
138	0x3e52af80	0.2057476
139	0x00000c9a	4.52e-42
140	0x3c1ad0e6	0.009449219
141	0xbd9d66d3	-0.07685628
142	0xbd10f77f	-0.03539228
143	0x8000515f	-2.919e-41
144	0xbd4df8a8	-0.050285965
145	0xbc510411	-0.012757317
146	0x3dc482a8	0.09595233
147	0x3de67043	0.11251881
148	0x00001e06	1.077e-41
149	0x3d812013	0.06304946
150	0x3e2a63ab	0.16639583
151	0xbd8fbdcc	-0.07018623
152	0x3d7a308e	0.06108146
153	0x39d4a248	0.000405567
154	0x00003083	1.7403e-41
155	0xbca45b90	-0.020063192
156	0x3d0b09fe	0.033945076
157	0x8000d521	-7.6456e-41
158	0xbdfcd698	-0.12345618
159	0xbde584af	-0.11206948
160	0xbd44e034	-0.04806538
161	0x8088594a	-1.2521658e-38
162	0xbdbdf287	-0.09274774
163	0x3e90c258	0.28273273
164	0x3ea957a5	0.3307468
165	0x3b0363d2	0.0020048511
166	0xb5c4cdee	-1.4663071e-06
167	0xbdc3564b	-0.095379435
168	0x80001830	-8.677e-42
169	0x3d8e75aa	0.069560364
170	0x3d9294d0	0.0715729
171	0xbd59eba5	-0.053203244
172	0x800034a1	-1.888e-41
173	0xbcbbbe7d	-0.02291798
174	0x00004a1b	2.6584e-41
175	0xbe863326	-0.26210898
176	0x3e67030d	0.22559758
177	0xbc2a2224	-0.010384116
178	0xbc7f5dc6	-0.015586322
179	0xbcee2d96	-0.029074471
180	0xbdedd1bf	-0.116122715
181	0xbf176903	-0.5914461
182	0xbe549bbf	-0.20762537
183	0xbe52f39c	-0.20600742
184	0x3da9b6dd	0.082868315
185	0xbed7369e	-0.42033857
186	0xb48dc40f	-2.6405948e-07
187	0x3dd02b9b	0.10164567
188	0xbe97f059	-0.29675558
189	0x3e4f94ff	0.20271681
190	0xbe4a7707	-0.19771968
191	0xbd70ddd3	-0.058805298
192	0x0000db21	7.8609e-41
193	0x3dfdd7d9	0.12394685
194	0xbd5ce970	-0.05393356
195	0xbc17a093	-0.0092545925
196	0x000098b8	5.4785e-41
197	0x3d540a06	0.05176737
198	0x80004381	-2.4216e-41
199	0x3ca33536	0.019922834
200	0x3b78128a	0.0037852847
201	0x3d5a83ba	0.05334828
202	0x3d8b533d	0.06802986
203	0xbe14d403	-0.14534001
204	0xbdf5fccf	-0.1201111
205	0xbe42d906	-0.190281
206	0xbe3287df	-0.17434643
207	0x3e24025c	0.16016525
208	0x3e339a19	0.17539252
209	0xbd80cdf2	-0.06289281
210	0x3ce98db5	0.028509954
211	0xbd98f71c	-0.074690074
212	0x8000475f	-2.5603e-41
213	0xbab031c0	-0.0013442561
214	0xbd833d9b	-0.06408235
215	0x3df31c2d	0.118706085
216	0xbb34fe69	-0.002761746
217	0x000166bd	1.28691e-40
218	0xbe99125a	-0.29896814
219	0xbd2eb1b4	-0.04264994
220	0xbe0e1f7e	-0.13879201
221	0xbe937c12	-0.28805596
222	0x3e1b734f	0.15180705
223	0x0000ad10	6.2083e-41
224	0xbd64194f	-0.0556882
225	0xab4062f4	-6.834943e-13
226	0x3de367c9	0.1110378
227	0x0000b1d4	6.3793e-41
228	0xbdfc964c	-0.12333354
229	0xbd733410	-0.059375823
230	0xbda4d27b	-0.080479585
231	0xb68766bd	-4.035274e-06
232	0x3ea46a64	0.3211242
233	0x3d977950	0.073961854
234	0xbebfc677	-0.37456104
235	0x3c2c6240	0.0105214715
236	0x0000e3a1	8.1658e-41
237	0x3db5064e	0.08839093
238	0xbcfc07f2	-0.030765507
239	0x3dcf7870	0.101303935
240	0xbc3106b8	-0.0108048245
241	0x3c2b43bb	0.01045316
242	0xbd0d73d8	-0.034534305
243	0xbcd2135c	-0.025643997
244	0xbdd829b5	-0.1055483
245	0xbcc4bf9e	-0.024017151
246	0x3e50431d	0.20338102
247	0x3df45f5b	0.1193225
248	0x3d24302a	0.040084995
249	0x3e1c733a	0.1527833
250	0x3e38a391	0.18031146
251	0x000015a1	7.759e-42
252	0xbe46038b	-0.19337289
253	0x0000d498	7.6264e-41
254	0xbe720e68	-0.23638308
255	0x3e81da5f	0.25361916

fc4_Add_B f4 [128]
0	0x3d1e39d5	0.03862937
1	0x3dc20895	0.09474293
2	0x3dc0ad54	0.0940806
3	0xbca0cf60	-0.019630134
4	0xbc363174	-0.011120189
5	0x3b0a5aee	0.0021111327
6	0x3d3eb9f0	0.046564043
7	0x3d66979e	0.056296937
8	0xbb366628	-0.0027831886
9	0xbc51c137	-0.012802414
10	0xbc223a46	-0.009901589
11	0xbcc2eca8	-0.023794487
12	0x3d7d7494	0.061878756
13	0x3d88bfd0	0.0667721
14	0x3d1b9df6	0.03799244
15	0xbc521293	-0.012821811
16	0xbc8b8585	-0.01703144
17	0x3d46e4f5	0.048558194
18	0x3c1f54b5	0.009724786
19	0x3d528ec9	0.0514057
20	0xbbe41794	-0.0069608185
21	0xbcc5a363	-0.02412576
22	0x3d0130cc	0.031540677
23	0xbcba358f	-0.022730617
24	0x3b124884	0.0022321055
25	0x3d12b659	0.03581843
26	0xbc21b939	-0.009870821
27	0x3c9274ad	0.017877901
28	0x3df8df1f	0.12151932
29	0xbc24c746	-0.010057276
30	0x3d893fe1	0.06701637
31	0x3c9f0f13	0.019416368
32	0xbd85b1f6	-0.06528084
33	0xbb99959a	-0.0046870233
34	0x3d8fab7d	0.07015131
35	0x3cb4b7d3	0.02206031
36	0xbd17adee	-0.037031107
37	0x3d97f9c4	0.07420686
38	0xbcb5be4c	-0.022185467
39	0x3da9c87e	0.08290194
40	0xbc48d219	-0.012257122
41	0xbbf67bf5	-0.007522101
42	0x3d1fa737	0.038977828
43	0x3dccd3e2	0.10001351
44	0xbca35464	-0.019937702
45	0x3cc0b341	0.023522975
46	0xbc528120	-0.012848169
47	0x3b5c9e33	0.003366363
48	0xbcc4fa22	-0.024045054
49	0x3d8ebc4b	0.06969508
50	0xbb34fd2a	-0.0027616718
51	0xbdbdeef5	-0.09274093
52	0x3d8adf4b	0.06780871
53	0x3da8bda1	0.08239294
54	0x3d90b717	0.070661716
55	0x3dbdeb67	0.09273415
56	0x3e009b10	0.12559152
57	0x3d818564	0.0632427
58	0x3d2134f5	0.039357144
59	0x3d53c66c	0.0517029
60	0x3dbad93e	0.09123467
61	0xbc129042	-0.008945527
62	0xbd157080	-0.03648424
63	0x3bfa7f04	0.007644536
64	0xbc2f7b65	-0.010710572
65	0xbc8d120d	-0.017220521
66	0x3ce5faaf	0.028073637
67	0xbaec0d1e	-0.001800928
68	0xbcbc9af4	-0.023023106
69	0xbcd6f993	-0.026242053
70	0xbc485511	-0.012227313
71	0xbc6d154e	-0.014470411
72	0x3c80b415	0.01571087
73	0x3c3af24d	0.011410308
74	0x3ba29a34	0.00496223
75	0x3d191cda	0.03738103
76	0x3cc8124d	0.024422789
77	0x3d8676b7	0.06565612
78	0x3e0deb9e	0.13859412
79	0x3ca52219	0.02015786
80	0x3ab22ed2	0.0013594276
81	0x3d1777fe	0.036979668
82	0x3db9773f	0.090559475
83	0x3d61408f	0.05499321
84	0xbc6a87e2	-0.014314624
85	0x3ccfa5da	0.025347639
86	0x3e0d4922	0.13797429
87	0x3d44b22d	0.048021484
88	0x3d5544ed	0.052067686
89	0xbbeab94b	-0.007163202
90	0x3bd5caa3	0.0065244003
91	0xbc1145f7	-0.008866779
92	0x3b02e92c	0.0019975407
93	0xbd21724c	-0.039415643
94	0xbc150d17	-0.009097359
95	0xbd0c604f	-0.034271535
96	0x3d9d5a8d	0.07683287
97	0x3db2cc98	0.087304294
98	0x3d1e0173	0.0385756
99	0xba067490	-0.00051290635
100	0x3d2f0185	0.04272606
101	0x3d0a25dc	0.03372751
102	0x3d665726	0.056235455
103	0x3da2fbec	0.079582065
104	0xbd933d5e	-0.07189439
105	0xbbcb74aa	-0.006208976
106	0xbd3d6eb0	-0.046248138
107	0xbd28254f	-0.041051205
108	0xbd07323f	-0.033006903
109	0xbd09ed7e	-0.033673756
110	0xbd3580d4	-0.044312313
111	0x3df8f881	0.12156773
112	0x3e1cb75c	0.15304321
113	0xbd1f42cd	-0.038882066
114	0xbc84dc31	-0.016218277
115	0x3d861a9b	0.06548043
116	0x3d76434f	0.060122784
117	0x3c2dc467	0.010605908
118	0x3c9bca3f	0.019017337
119	0x3d04ae37	0.032392707
120	0xbc440730	-0.011964604
121	0x3d093e00	0.033506393
122	0x3ca6588f	0.0203059
123	0xbc7238ce	-0.014784051
124	0x3d949336	0.07254641
125	0xbc595710	-0.013265386
126	0x3d5f23e0	0.054477572
127	0x3c02e65d	0.007989493

fc5_MatMul_W f4 [128, 64]
0	0x3cef93af	0.029245226
1	0x3e511292	0.2041724
2	0x3c534769	0.0128954435
3	0xbda7a050	-0.08184874
4	0xbde8d6ca	-0.11369093
5	0x3dd89a92	0.10576357
6	0xbd0e528b	-0.034746688
7	0x8000407a	-2.313e-41
8	0xbd82c311	-0.06384862
9	0x000058cf	3.1859e-41
10	0xbd8793cc	-0.06619987
11	0xbda44c5e	-0.080223784
12	0xbe46025f	-0.19336842
13	0x3daab979	0.08336157
14	0xbd73aa86	-0.059488796
15	0xbe41df87	-0.18932925
16	0xbd48c735	-0.049018104
17	0x3be96035	0.0071220645
18	0x3dec47a0	0.11537099
19	0x3db8024e	0.089848146
20	0x3e0dc053	0.13842897
21	0xbe09a839	-0.13443078
22	0xbdd870aa	-0.10568364
23	0xbe3b22b5	-0.18274958
24	0xbe133ebd	-0.14379402
25	0x3cdb4efb	0.02677106
26	0x3db9ee35	0.090786375
27	0x3d90e160	0.07074237
28	0x000002ae	9.61e-43
29	0x3dc59a62	0.09648587
30	0x3d959ce0	0.07305312
31	0x3db33801	0.08750916
32	0xbde6f8ea	-0.11277945
33	0xbe11fdd9	-0.14256991
34	0x8000631c	-3.5554e-41
35	0x00007a4e	4.3875e-41
36	0x3dba55b5	0.090983786
37	0xbd6f8a88	-0.058481723
38	0x3dfa411d	0.122194506
39	0x3d0583ec	0.032596514
40	0x3e9b7894	0.3036543
41	0xbe0f1865	-0.1397415
42	0x80008cc7	-5.0501e-41
43	0xbd3097db	-0.04311357
44	0x800013ee	-7.15e-42
45	0x0000aa03	6.0989e-41
46	0x3bea3fee	0.0071487343
47	0xbcabcc7d	-0.020971531
48	0x3d94443b	0.072395764
49	0x3d96dd50	0.07366431
50	0xbdddbde2	-0.10827233
51	0xbd88bca6	-0.06676607
52	0x3d31c5ff	0.043401714
53	0x000068ff	3.7666e-41
54	0x3dbb5a0d	0.09148035
55	0xbe45f699	-0.19332351
56	0x3d41d12a	0.047318615
57	0x3e59fab8	0.21287048
58	0x3c35e248	0.011101313
59	0x3db3a93f	0.087725155
60	0xbd40e634	-0.04709454
61	0x3d838bdb	0.0642316
62	0x3cd1aca2	0.025595013
63	0x3e3ffe1f	0.18749283
64	0x3c070874	0.0082417615
65	0xbccdd1ef	-0.025124518
66	0xbe1068f9	-0.14102544
67	0x3e1b5315	0.15168412
68	0x3dbf4129	0.093386
69	0x3c52a6f4	0.012857188
70	0x3dda59fd	0.10661695
71	0x00005ad1	3.2579e-41
72	0xbdbf0d88	-0.09328753
73	0x8000af2a	-6.2837e-41
74	0xbe28884d	-0.16458245
75	0x3e0c4b88	0.13700688
76	0x3e4d5352	0.20051315
77	0xbacc8774	-0.0015604333
78	0x3e00b262	0.12568048
79	0xbc2b5bf5	-0.010458936
80	0x3d936a05	0.07197956
81	0xbd8ab16c	-0.06772122
82	0xbd12aff1	-0.035812322
83	0xbe01cb45	-0.12675197
84	0x3df454f1	0.11930264
85	0x3e02a3cf	0.127578
86	0x3e57466d	0.21022959
87	0x3d55ecbe	0.052227728
88	0x3dd45c93	0.1036922
89	0x3da9c895	0.08290211
90	0x3c1f6e62	0.009730907
91	0x3e0d4965	0.13797529
92	0x00008426	4.7406e-41
93	0xbda3e07a	-0.080018
94	0x3dbf43ba	0.0933909
95	0x3d73cbf1	0.059520666
96	0x3aa632a3	0.0012679886
97	0xbb6fa1fa	-0.0036565051
98	0x8000a979	-6.0795e-41
99	0x0000048e	1.634e-42
100	0xbd1a10cf	-0.037613686
101	0x3d6dab58	0.058024734
102	0x3c72c037	0.014816335
103	0xbd16a825	-0.03678145
104	0x3e0d2dab	0.13786952
105	0x3e241d77	0.16026865
106	0x00007c35	4.4557e-41
107	0x3e11ff98	0.14257658
108	0x000036d2	1.9666e-41
109	0xaa6982ae	-2.0739896e-13
110	0x3e100f7e	0.1406841
111	0xbc28be7f	-0.010299324
112	0xbde2133a	-0.110388234
113	0xbd278d4f	-0.040906247
114	0xbe05bda3	-0.13060622
115	0xbe01de0e	-0.12682363
116	0xbe1054a8	-0.14094794
117	0x17e789fe	1.4962859e-24
118	0x3d24e8d5	0.04026111
119	0x3c17126e	0.009220703
120	0x3d77bb09	0.060481105
121	0x3e4f7db3	0.20262794
122	0xbd739a61	-0.0594734
123	0xbd4515bf	-0.04811644
124	0x3dba7bf3	0.09105673
125	0xbd9fbbe1	-0.07799507
126	0xbdb78559	-0.08960981
127	0xbd8ff94a	-0.0702997
128	0x3cc935b9	0.02456175
129	0xbcd64808	-0.026157394
130	0x3cc25d18	0.023726031
131	0xbbbd30ef	-0.0057736556
132	0x3e16ca88	0.14725697
133	0x3dcc9dd6	0.09991042
134	0x3d92c2f6	0.07166092
135	0x000098c6	5.4805e-41
136	0xbdb23c23	-0.087028764
137	0x000090a9	5.1894e-41
138	0xbdeb77ea	-0.11497481
139	0xbe1cd5ad	-0.15315886
140	0xbd9779f6	-0.07396309
141	0xbd0f275e	-0.034949653
142	0xbb41de24	-0.002958187
143	0x3e2b0b35	0.16703494
144	0xbcad1b97	-0.02113132
145	0xbd072ffd	-0.03300475
146	0x3ea017e2	0.3126822
147	0xbe00600e	-0.12536642
148	0x3e172941	0.14761831
149	0xbb9278eb	-0.004469981
150	0x3e331170	0.1748712
151	0x3c8c3824	0.017116614
152	0xbd70929d	-0.05873357
153	0xbc65233a	-0.013985449
154	0xbc0ad07f	-0.008472561
155	0x3d98be3e	0.07458161
156	0x00007c94	4.469e-41
157	0x3e1dc4b8	0.15407073
158	0x3dd5ea04	0.104450256
159	0x3d085979	0.033288453
160	0xbd047166	-0.032334708
161	0xbdc5d116	-0.096590206
162	0x800094b3	-5.3343e-41
163	0x800072b4	-4.1148e-41
164	0x3def69db	0.11690112
165	0xbcd84a95	-0.026402751
166	0xbdb53b5f	-0.08849215
167	0x3df4c582	0.11951734
168	0xbd2866a3	-0.041113507
169	0x3cfa2f4e	0.030540135
170	0x80001b6a	-9.834e-42
171	0xbc738c05	-0.014864926
172	0x8000ee1a	-8.5415e-41
173	0x800027d5	-1.4289e-41
174	0x3d64aaed	0.05582707
175	0x3e59531c	0.2122311
176	0xbe097dbf	-0.13426875
177	0xbcdde56e	-0.02708694
178	0x3d844a62	0.064595
179	0x3bc675f8	0.0060565434
180	0x3ceb2a9c	0.028706841
181	0x00009602	5.3813e-41
182	0xbdda5311	-0.10660375
183	0x3e818448	0.25296235
184	0x3b9b99ff	0.0047485824
185	0x3df52615	0.11970154
186	0xbd6bd41a	-0.057575323
187	0x3da34efd	0.0797405
188	0x3d063a18	0.032770246
189	0xbd3a9bfb	-0.04555891
190	0x3e63aa9d	0.22233053
191	0x3df0a983	0.11751082
192	0x3becbafc	0.0072244387
193	0xbcf96f97	-0.030448718
194	0x3c80dae4	0.015729375
195	0xbd252002	-0.04031373
196	0x3d4ebcf8	0.050473183
197	0xbe45791d	-0.19284482
198	0x3cffab3d	0.031209582
199	0x0000a52a	5.925e-41
200	0x3e392564	0.1808067
201	0x80000996	-3.439e-42
202	0xbd9cd002	-0.07656862
203	0x3e003155	0.12518819
204	0xbdbd4f32	-0.09243621
205	0xbea42750	-0.32061243
206	0xbd0c472d	-0.034247566
207	0xbe36da42	-0.17856696
208	0x3d7cbc08	0.061702758
209	0x3e8fb2c8	0.28066087
210	0xbd9e20e6	-0.07721119
211	0x3c98b2a9	0.01863988
212	0x3c830134	0.015991785
213	0xbde62171	-0.11236847
214	0xbcade7e2	-0.021228734
215	0xbd851c40	-0.06499529
216	0x3da5e708	0.08100706
217	0xbdd84729	-0.10560448
218	0xbb8a4113	-0.004219183
219	0xbdd6e738	-0.1049332
220	0x80003620	-1.9416e-41
221	0x3da4225d	0.08014367
222	0xbda98a32	-0.08278312
223	0x3da7a76f	0.08186232
224	0xbc94c17e	-0.01815867
225	0x3daed38a	0.085364416
226	0x00003955	2.0567e-41
227	0x80002ccc	-1.607e-41
228	0x3de0b752	0.109724656
229	0x3ce2ae7a	0.027671088
230	0x3dc8a1b1	0.09796465
231	0xbdcadcb3	-0.09905376
232	0xbd55eaa8	-0.05222574
233	0x3d8e8562	0.069590345
234	0x80009f1e	-5.708e-41
235	0xbe89b845	-0.268984
236	0x00008723	4.8478e-41
237	0x8000dde4	-7.96e-41
238	0xbe844be6	-0.25839156
239	0x3d93527f	0.07193469
240	0xbddbdf97	-0.10736006
241	0x3dd7664e	0.1051756
242	0x3d09528f	0.033526
243	0x3df5627b	0.11981674
244	0xbc164c71	-0.0091734985
245	0x800093f2	-5.3073e-41
246	0xbd174281	-0.036928657
247	0xbe32c48e	-0.17457792
248	0xbe1d01cf	-0.15332721
249	0xbdda4ee4	-0.106595784
250	0x3e0ff6d9	0.14059009
251	0x3e36bacd	0.17844696
252	0xbdcd323c	-0.10019347
253	0xbd440f14	-0.047865942
254	0x3df74d46	0.120752856
255	0xbe0b1bbb	-0.13584797

fc5_Add_B f4 [64]
0	0x3d96bacb	0.07359847
1	0x3c0195af	0.0079092225
2	0xbd9a7148	-0.07541138
3	0x3d8949c6	0.06703524
4	0x3d596049	0.05307034
5	0x3dabb47c	0.08384034
6	0x3d1ea1ce	0.038728528
7	0xbc1a8cc1	-0.009432972
8	0xbdb1147d	-0.08646486
9	0xbcd9cca3	-0.026586836
10	0x3bea90df	0.0071583833
11	0xbd4bf26d	-0.049791742
12	0x3d18ecca	0.037335195
13	0x3d239c59	0.039944027
14	0x3ca20367	0.019777013
15	0x3d88b3a1	0.066748865
16	0xbaf6c9e3	-0.0018828477
17	0x3d3162e5	0.043307204
18	0x3d125533	0.035725784
19	0x3dd866db	0.10566493
20	0x3d24a9ca	0.040200986
21	0x3d7707bb	0.060310107
22	0x3d530afd	0.05152415
23	0x3d0a9b81	0.033839706
24	0x3d943379	0.0723638
25	0x3dac48dd	0.08412335
26	0x3ba53b88	0.005042497
27	0x3d728f78	0.059218854
28	0xbc28644e	-0.010277821
29	0xbcbda4f9	-0.023149954
30	0x3db7a6d0	0.08967364
31	0x3d80a895	0.062821545
32	0x3c66a7f8	0.014078133
33	0x3dbd654b	0.09247836
34	0xbd09f5b1	-0.033681575
35	0xbc4ebd97	-0.012618444
36	0xbcd1d212	-0.025612865
37	0x3c304a0c	0.010759842
38	0x3da39b63	0.07988622
39	0xbdcd2872	-0.1001748
40	0x3d7f0b49	0.06226662
41	0x3e07f8dd	0.13278528
42	0xbd023967	-0.031793024
43	0x3d794889	0.06086019
44	0xbbc4be76	-0.00600415
45	0xbc607c9f	-0.013701587
46	0x3d85bb97	0.065299205
47	0x3d84f3c5	0.06491808
48	0xbab7906a	-0.0014004831
49	0x3beb978c	0.0071896967
50	0x3d031d85	0.032010574
51	0x3d37bd2b	0.04485814
52	0x3d775928	0.06038776
53	0xbc9f97e9	-0.019481616
54	0x3d649bdf	0.055812713
55	0x3da20b94	0.079123646
56	0x3d86676c	0.06562695
57	0x3c2a8379	0.010407322
58	0xbd00c219	-0.031435106
59	0x3c8fd8e8	0.017559484
60	0x3d8b9c20	0.06816888
61	0x3c233c29	0.009963074
62	0x3d7c81f7	0.06164738
63	0xbccc5901	-0.024944784
